…
olab":{"base_uri":"https://localhost:8080/"},"executionInfo":{"elapsed":384,"status":"ok","timestamp":1666361062336,"user":{"displayName":"Saroj Dayal","userId":"17554496406606940001"},"user_tz":240},"id":"QWf76JT37Xw6","outputId":"fc1f689a-1b22-4931-8383-da8f2242d153"},"outputs":[{"output_type":"stream","name":"stdout","text":["Model: \"sequential_442\"\n","_________________________________________________________________\n","Layer (type)                 Output Shape              Param #   \n","=================================================================\n","flatten_442 (Flatten)        (None, 784)               0         \n","_________________________________________________________________\n","dropout_498 (Dropout)        (None, 784)               0         \n","_________________________________________________________________\n","dense_1326 (Dense)           (None, 300)               235500    \n","_________________________________________________________________\n","dropout_499 (Dropout)        (None, 300)               0         \n","_________________________________________________________________\n","dense_1327 (Dense)           (None, 100)               30100     \n","_________________________________________________________________\n","dropout_500 (Dropout)        (None, 100)               0         \n","_________________________________________________________________\n","dense_1328 (Dense)           (None, 10)                1010      \n","=================================================================\n","Total params: 266,610\n","Trainable params: 266,610\n","Non-trainable params: 0\n","_________________________________________________________________\n"]}],"source":["centralized_model = create_compiled_keras_model()\n","centralized_model.summary()"]},{"cell_type":"code","execution_count":null,"metadata":{"colab":{"ba
…
